src/checkpoint.pth (torch, 170967 bytes, 6 tensors)

model.0.weight f4 [201, 5]
0.055553418 -0.30870813 -0.21580902 -0.33113068 -0.06353487 0.121220775 0.04814384 -0.0069129737
-0.17369954 -0.67956406 -0.18709628 -0.19140461 -0.18827167 -0.33771017 0.19787493 -0.42179167
-0.16072923 0.3010601 0.4612397 -0.5697838 0.24112897 0.046300102 0.04388381 0.43113327
-0.01714911 0.21064323 0.037182894 -0.09562121 -0.13959564 -0.4980464 0.02003665 -0.08861645
-0.49301857 -0.041553874 0.09238493 -0.33803684 -0.006498783 -0.30648065 0.07181691 0.19336401
-0.017129809 -0.2942417 -0.4736076 0.027289813 -0.33960664 0.43234712 -0.20310043 -0.3242113
-0.35222027 0.28232253 -0.11720027 -0.10557932 0.25957307 -0.3749464 -0.47127792 0.16920608
-0.26449272 0.15313195 -0.49220878 0.0013108131 -0.37563178 0.017710924 0.16973138 0.2124922
-0.389276 0.017788172 -0.11325667 -0.2849051 -0.19534455 -0.15828396 -0.27157232 -0.1122288
-0.3795734 -0.22218964 0.21287537 -0.28331122 -0.02509938 -0.23534054 -0.10704188 0.2894938
0.18835518 0.03639405 0.49461585 0.3372594 -0.2820094 -0.035366405 -0.2369116 0.36098862
-0.56454384 -0.09437213 -0.4569396 -0.08365894 0.20018287 0.39943156 0.6064744 -0.26328236
-0.13397531 -0.59918624 0.40571937 -0.31161824 0.2153349 -0.049421165 -0.21991508 0.006483134
0.26285398 0.15116616 0.26160887 0.08339798 -0.38866165 0.43777856 0.2775646 0.10785219
0.24713072 0.52057624 0.22735815 0.35711125 -0.43729857 -0.22574843 -0.08595288 -0.013792925
-0.03905334 -0.33239272 0.021780271 -0.3369291 0.01751388 0.32712066 0.046510406 0.64512485
0.1824478 0.21643147 -0.15815072 -0.26930484 -0.69886595 0.2988912 -0.27743334 0.025963627
0.020120384 -0.2848039 -0.21623212 0.56217575 -0.17742553 0.1703993 -0.42078802 -0.38213164
0.14711271 -0.11010341 -0.041235313 -0.6156741 0.19917057 0.01563647 -0.23332533 0.17055787
-0.14493026 0.25916892 0.27065688 -0.2560882 -0.2081221 -0.39567426 -0.22060277 -0.329423
0.2976834 0.274711 -0.36198866 0.15908253 0.014534955 -0.3538958 0.12131318 0.10816568
-0.6851916 0.15482782 0.059162207 0.13662745 -0.10410306 0.28545633 -0.47252095 -0.3594047
0.22911258 0.026648087 -0.1995294 0.38674873 0.36178842 -0.40857795 -0.42509022 -0.52978
0.42434064 -0.4517566 -0.09262048 -0.049290184 0.29452017 -0.117696784 0.01618567 -0.0060613994
-0.40981814 -0.053268477 -0.43339142 0.13973238 -0.21626112 0.15869194 -0.3460099 -0.36350518
-0.4227822 -0.27832955 0.2535882 0.10776178 -0.12628084 -0.14300999 0.32587296 0.49314085
-0.32545903 -0.015757443 0.37499392 -0.25783062 0.6650365 0.2091314 -0.23744781 0.30394813
0.3214273 0.5623111 0.4375561 -0.119201034 -0.0895392 0.19956233 0.20222086 -0.13771467
-0.47545373 0.2099183 -0.11250316 -0.22501107 0.04124582 0.48237395 0.12697138 0.3770347
-0.0007246236 -0.06765094 -0.10931679 -0.30221814 0.20536199 -0.033458423 -0.44380665 0.289823
-0.20812412 0.29611018 0.15554741 0.26581678 -0.2487313 -0.24765398 0.10211183 -0.43674666
0.23998737 0.51375085 0.40965828 0.29446182 0.6022907 -0.24608403 0.31983793 0.073833235
00000000: fb8b 633d fe0e 9ebe 0afd 5cbe f689 a9be
00000010: 921e 82bd 9942 f83d 7a32 453d 3a86 e2bb
00000020: 4bde 31be e9f7 2dbf 2b96 3fbe 92ff 43be
00000030: 4aca 40be 59e8 acbe ba9f 4a3e 14f5 d7be
00000040: 3496 24be 8d24 9a3e 9c27 ec3e 5add 11bf
00000050: 83ea 763e 2da5 3d3d 83bf 333d 80bd dc3e
00000060: 4a7c 8cbc dcb2 573e 174d 183d 0ed5 c3bd
00000070: 29f2 0ebe f0ff febe e723 a43c 8b7c b5bd
00000080: ee6c fcbe 6534 2abd 4f34 bd3d 2a13 adbe
00000090: bef3 d4bb 08eb 9cbe be14 933d 3701 463e
000000a0: d053 8cbc d9a6 96be b27c f2be e38e df3c
000000b0: ece0 adbe 9a5c dd3e 8ff9 4fbe 06ff a5be
000000c0: 3756 b4be 948c 903e b206 f0bd f839 d8bd
000000d0: c3e6 843e f9f8 bfbe 574b f1be 5c44 2d3e
000000e0: 976b 87be 9fce 1c3e ca02 fcbe 97cf ab3a
000000f0: cf52 c0be 8016 913c 10ce 2d3e 8e97 593e
00000100: 2f4f c7be 80b8 913c 1df3 e7bd 15df 91be
00000110: 6708 48be 3115 22be 870b 8bbe 37d8 e5bd
00000120: 7257 c2be ae85 63be 00fc 593e 2b0e 91be
00000130: 379d cdbc 1cfd 70be c638 dbbd 8838 943e
00000140: 2ee0 403e ed11 153d 4a3e fd3e 44ad ac3e
00000150: 8963 90be 5ddc 10bd f498 72be 80d3 b83e
00000160: f285 10bf 2d46 c1bd fdf3 e9be 6155 abbd
00000170: bdfc 4c3e 4b82 cc3e e841 1b3f f2cc 86be
00000180: d330 09be 4564 19bf 73ba cf3e 6d8c 9fbe
00000190: c180 5c3e d96d 4abd 6b31 61be 7870 d43b
000001a0: cc94 863e 4dcb 1a3e 99f1 853e 8fcc aa3d
000001b0: a9fe c6be 8324 e03e f21c 8e3e 9ce1 dc3d
000001c0: d60f 7d3e 7c44 053f 93d0 683e 49d7 b63e
000001d0: 99e5 dfbe 992a 67be 1008 b0bd b8fb 61bc
000001e0: 65f6 1fbd 612f aabe 8a6c b23c f981 acbe
000001f0: 4579 8f3c 5c7c a73e b281 3e3d e726 253f
00000200: 99d3 3a3e 36a0 5d3e 43f2 21be 53e2 89be
00000210: e1e8 32bf 4408 993e be0b 8ebe acb1 d43c
00000220: 81d3 a43c d1d1 91be f46b 5dbe c0ea 0f3f
00000230: 0aaf 35be 277d 2e3e 8771 d7be c2a6 c3be
00000240: b7a4 163e e67d e1bd 5ce6 28bd d19c 1dbf
00000250: 5ff3 4b3e 0e18 803c d6ec 6ebe b9a6 2e3e
00000260: 9968 14be cab1 843e 8a93 8a3e fe1d 83be
00000270: f61d 55be d195 cabe b1e5 61be 22aa a8be
00000280: f569 983e eca6 8c3e 9456 b9be 88e6 223e
00000290: 0524 6e3c d531 b5be 0b73 f83d f885 dd3d
000002a0: b768 2fbf 2f8b 1e3e 1254 723d 11e8 0b3e
000002b0: fc33 d5bd 5527 923e 44ee f1be e503 b8be
000002c0: 7d9c 6a3e 174d da3c 6f51 4cbe ee03 c63e
000002d0: 553c b93e 2131 d1be 6da5 d9be a99f 07bf
000002e0: 2d43 d93e a44c e7be ceaf bdbd 81e4 49bd
000002f0: 59cb 963e 030b f1bd cf97 843c b49e c6bb
00000300: afd3 d1be 0c30 5abd 7be5 ddbe 0116 0f3e
00000310: 8e73 5dbe 2480 223e 3628 b1be 5a1d babe
00000320: e976 d8be 3681 8ebe 50d6 813e 35b2 dc3d
00000330: c44f 01be 3671 12be d2d8 a63e f57c fc3e
00000340: 91a2 a6be c115 81bc 34ff bf3e 6002 84be
00000350: d53f 2a3f 8b26 563e 8525 73be 179f 9b3e
00000360: 1e92 a43e 9ff3 0f3f 5a07 e03e ac1f f4bd
00000370: 5460 b7bd 115a 4c3e fc12 4f3e 1305 0dbe
00000380: ac6e f3be d3f4 563e 0f68 e6bd 4d69 66be
00000390: 60f1 283d b8f9 f63e c904 023e b10a c13e
000003a0: abf4 3dba 938c 8abd 7be1 dfbd 56bc 9abe
000003b0: 6a4a 523e b30b 09bd a03a e3be ae63 943e
000003c0: 7d1e 55be c19b 973e d247 1f3e 2319 883e
000003d0: 6bb3 7ebe 0199 7dbe 0220 d13d 429d dfbe
000003e0: 40bf 753e 2d85 033f bbbe d13e b3c3 963e
000003f0: b92f 1a3f 74fd 7bbe ccc1 a33e e135 973d

model.0.bias f4 [201]
-0.025758067 0.1113479 0.087508805 0.30464774 -0.38874927 0.14706527 -0.22895083 -0.28069654
-0.2044538 -0.30415156 0.07769799 0.15276109 0.30686256 -0.016993273 -0.29929483 -0.055038854
0.05026709 0.10269646 -0.47104475 -0.0073464066 -0.33520192 0.16664833 -0.14660276 -0.55794954
0.2610145 0.36906305 -0.27158153 -0.07538843 -0.27714625 0.17116934 -0.55903757 -0.55869085
0.10806055 -0.27690685 -0.15757875 -0.29918033 -0.27695405 0.08534116 -0.3872023 -0.48987433
0.48882776 -0.33677238 0.34557897 -0.23621434 0.2204009 0.38493684 -0.22958829 -0.015733713
0.15156707 0.15257426 0.06871773 0.0077869976 0.39602184 -0.27777958 -0.31315252 -0.25097755
-0.2107214 -0.18956998 -0.3167886 0.2971829 -0.099944286 -0.26830357 -0.29244813 -0.14420258
-0.4060479 -0.1856155 -0.06922979 -0.10197321 0.035785843 -0.24706826 0.29207793 -0.4886004
0.22900844 -0.3988984 -0.101633966 -0.5015959 0.227691 -0.07332079 -0.39683992 -0.19150351
0.40200093 -0.43531248 0.33381006 0.32968903 0.41420776 0.20057668 -0.27427527 -0.3783912
-0.20691796 -0.39383745 -0.036758825 0.08026429 -0.00738674 0.09536133 0.24372572 -0.25962865
0.3785109 0.45761147 0.29626492 -0.23381974 -0.5147922 -0.03220594 0.2627643 0.029007766
0.022888081 0.064546525 -0.346572 -0.21896684 0.104800545 0.23207545 0.13379513 -0.392333
-0.4260411 -0.27445033 -0.4760065 -0.49589235 -0.23591731 -0.23651879 -0.33683473 0.073981225
0.23335661 -0.38413972 0.24675566 -0.51031584 -0.2890674 0.23672354 -0.28321025 0.009110423
-0.24119435 -0.2953263 -0.09784329 -0.41997826 0.1499978 -0.2869646 -0.08924356 -0.21337663
-0.31155276 0.3073396 0.0045720446 0.106428765 -0.07058121 -0.13166267 -0.21282454 0.35077718
-0.12402077 -0.2814149 -0.27182612 0.34355626 -0.08478405 0.28183103 0.27774003 0.18629141
0.07167001 0.155569 0.15464981 0.13250923 -0.15939267 0.3343951 0.36159152 -0.2335569
0.23549284 0.4728854 0.105813675 0.53819495 -0.473559 -0.052898012 0.39257768 0.03563382
-0.51307994 -0.12675934 -0.03772077 -0.024379596 -0.1341406 -0.09904911 -0.25395346 -0.17531706
-0.38645113 -0.28677154 0.19298132 0.1959886 0.18221804 0.24420968 -0.60592026 0.003014279
0.16552132 -0.104113534 0.3404746 -0.09112645 0.18614282 -0.32403332 0.2232848 -0.3692472
-0.0782176 -0.42587402 -0.1516103 0.0018126685 -0.2495017 0.27060002 0.09855382 -0.29742688
0.053972457
00000000: 9502 d3bc 5e0a e43d d137 b33d cafa 9b3e
00000010: 250a c7be 4798 163e 1672 6abe 75b7 8fbe
00000020: 565c 51be c1b9 9bbe 2020 9f3d 676d 1c3e
00000030: 171d 9d3e 7a35 8bbc 2c3d 99be 6c70 61bd
00000040: dde4 4d3d 8652 d23d c72c f1be 20ba f0bb
00000050: 969f abbe dca5 2a3e 091f 16be c8d5 0ebf
00000060: b1a3 853e d5f5 bc3e bc0c 8bbe 4065 9abd
00000070: 1de6 8dbe 0447 2f3e 161d 0fbf 5d06 0fbf
00000080: da4e dd3d bcc6 8dbe 535c 21be 2a2e 99be
00000090: eccc 8dbe 59c7 ae3d 613f c6be cfd0 fabe
000000a0: a247 fa3e 6e6d acbe baef b03e 2ce2 71be
000000b0: c6b0 613e 7116 c53e 3119 6bbe fde3 80bc
000000c0: 6634 1b3e 6d3c 1c3e e2bb 8c3d 122a ff3b
000000d0: 60c3 ca3e 2039 8ebe 8755 a0be 2180 80be
000000e0: 5ac7 57be a21e 42be 1e32 a2be 5b28 983e
000000f0: 97af ccbd 165f 89be c3bb 95be d7a9 13be
00000100: 83e5 cfbe fd11 3ebe 59c8 8dbd 55d7 d0bd
00000110: 2d94 123d 76ff 7cbe 3d8b 953e d529 fabe
00000120: 3081 6a3e 693c ccbe 7825 d0bd 9768 00bf
00000130: d427 693e 3629 96bd 9a2e cbbe 7f19 44be
00000140: 11d3 cd3e 47e1 debe 27e9 aa3e 00cd a83e
00000150: 0a13 d43e f963 4d3e cf6d 8cbe 7ebc c1be
00000160: 4de2 53be 10a5 c9be 6c90 16bd 9b61 a43d
00000170: 770c f2bb cd4c c33d 3c93 793e 0cee 84be
00000180: 2ecc c13e 0d4c ea3e 09b0 973e 716e 6fbe
00000190: 6cc9 03bf 60ea 03bd 0b89 863e b2a1 ed3c
000001a0: c97f bb3c f830 843d e371 b1be d838 60be
000001b0: aba1 d63d 30a5 6d3e 9701 093e dfdf c8be
000001c0: 0f22 dabe c184 8cbe 20b7 f3be 9ae5 fdbe
000001d0: 4f94 71be fb31 72be 9a75 acbe 7883 973d
000001e0: 09f5 6e3e f6ad c4be 84ad 7c3e 0fa4 02bf
000001f0: a400 94be a867 723e ef00 91be e243 153c
00000200: a7fb 76be 0235 97be 1062 c8bd 6407 d7be
00000210: 0699 193e 06ed 92be 54c5 b6bd 677f 5abe
00000220: d883 9fbe 9e5b 9d3e 17d1 953b 53f7 d93d
00000230: e28c 90bd 94d2 06be adee 59be 1199 b33e
00000240: 9afe fdbd 9d15 90be cb2c 8bbe 9be6 af3e
00000250: 43a3 adbd 284c 903e f133 8e3e 2dc3 3e3e
00000260: bac7 923d 7b4d 1f3e 855c 1e3e 80b0 073e
00000270: d537 23be d635 ab3e 8622 b93e 8a29 6fbe
00000280: 0925 713e 091e f23e d7b4 d83d 25c7 093f
00000290: 5376 f2be 96ab 58bd f1ff c83e c5f4 113d
000002a0: 3559 03bf 33cd 01be 1881 1abd b8b7 c7bc
000002b0: 275c 09be 43da cabd 3006 82be 5186 33be
000002c0: ecdc c5be b8d3 92be e59c 453e 3cb1 483e
000002d0: 5e97 3a3e 1a12 7a3e 971d 1bbf 368b 453b
000002e0: 6c7e 293e 7a39 d5bd b052 ae3e 81a0 babd
000002f0: 399c 3e3e b2e7 a5be c5a4 643e f80d bdbe
00000300: 8d30 a0bd 290c dabe bb3f 1bbe 1097 ed3a
00000310: 607d 7fbe 168c 8a3e 96d6 c93d 5648 98be
00000320: 3912 5d3d

model.3.weight f4 [201, 201]
0.012821232 -0.0218268 -0.015590963 0.028017124 0.12409057 -0.0054252343 -0.07029897 -0.11726582
-0.12839937 0.038824253 0.13678527 0.04843283 0.020543132 -0.0053691724 -0.20916878 -0.06517347
0.104935676 0.034172382 0.06048806 -0.10879188 -0.07829108 -0.0091044875 -0.042952694 -0.0316031
-0.0017727567 0.023126347 -0.37564638 -0.005755482 -0.0052067507 -0.07017483 -0.08089122 -0.2632781
0.029869169 -0.0069597363 0.083451435 0.001187863 -0.0012440451 -0.014992096 -0.112032644 0.0487
-0.026304929 -0.000740175 0.014478128 0.042049225 -0.007018138 0.016980007 -0.04116486 0.027523186
-0.027468288 -0.09222329 0.014398027 0.002254778 0.019082373 -0.010418376 0.046824828 -0.02022002
-0.013589441 -0.13769531 -0.08121178 0.006399491 0.035108708 0.32666427 0.0077259205 -0.09676411
-0.05851238 -0.021636812 -0.052036203 -0.0034040064 0.0045424043 -0.022105783 0.010008689 0.15704265
0.038304053 -0.18069467 0.053122275 0.094770774 0.09124221 -0.027678866 0.08179848 -0.14967202
0.046500027 -0.06124229 0.094060756 0.0694108 -0.022516822 -0.07551013 -0.18865761 0.053528056
0.03374446 0.13405885 -0.013576329 -0.0019205475 0.013530263 0.0873615 0.032476544 0.020621412
0.07350019 0.05807356 -0.035183955 0.18701941 0.019154795 -0.09142885 -0.016001511 0.066844895
0.059723675 0.096201204 -0.07924345 -0.006445936 -0.001088081 0.01850585 -0.09429483 0.0082941
-0.061215453 0.17747426 0.14724466 0.25436318 -0.022678409 -0.05591439 -0.03800152 -0.037007794
-0.092602916 -0.013489454 0.03433398 0.05309517 0.083932586 0.016691504 -0.093109615 -0.07846913
-0.027230809 0.15653846 0.04702626 -0.03475071 -0.043615907 0.020648267 0.030460697 0.067319706
0.034380537 0.04129774 -0.05157472 -0.017233692 -0.25996414 -0.07311104 -0.17160346 0.05725845
-0.12678812 0.04660346 -0.03541135 0.047588687 -0.15732336 0.0917967 0.02149809 0.052315757
0.024399897 -0.006609351 -0.06025927 0.017900694 -0.025427656 0.078303844 0.06559442 0.002044185
0.022747802 -0.0020468654 0.005593972 0.05960145 0.13525116 -0.040269833 0.043244336 -0.039522067
-0.34165975 -0.27689427 -0.040064618 -0.028208336 0.062177125 0.004496438 0.033981435 -0.4152226
-0.054979388 -0.19183716 0.016287213 0.039964803 0.0074545904 -0.073364355 0.19363628 -0.0024113674
-0.04373073 -0.08127843 -0.0043760175 -0.10982028 0.01910886 0.06687475 0.038085792 -0.28582633
-0.0152756255 0.24610266 0.03833361 0.1473291 -0.038435668 -0.0050900476 0.03224293 0.010323084
-0.007388862 -0.007769267 -0.070751496 -0.06430026 0.024142591 0.093008146 -0.014134144 0.067241445
-0.16485411 0.03404137 0.061405666 0.026351951 0.035644177 -0.027925253 0.0054961694 -0.50349236
-0.19570488 -0.03833519 0.0411719 -0.026962994 0.0036818425 0.07675578 -0.08185554 0.012308942
0.021871725 -0.010393108 0.011375072 0.025604302 -0.20931815 -0.14290601 0.017863562 -0.040933713
-0.14979213 0.0062599313 0.02209408 -0.039625935 0.017052656 0.041651808 6.451997e-05 -0.01880769
0.2384509 0.021550253 0.028173191 -0.0070761414 -0.108612895 -0.020047648 0.012174977 -0.15067041
-0.007689854 0.026058992 0.04916767 -0.012489973 0.013920984 -0.05060162 0.076331146 -0.0120029645
00000000: 2510 523c 1ece b2bc 3d71 7fbc 2b84 e53c
00000010: 3223 fe3d 2ac6 b1bb e8f8 8fbd 1029 f0bd
00000020: 207b 03be 2e06 1f3d 7011 0c3e 8161 463d
00000030: 124a a83c e2ef afbb 5730 56be ab79 85bd
00000040: 84e8 d63d 57f8 0b3d 54c2 773d 47ce debd
00000050: 1357 a0bd fd2a 15bc 2aef 2fbd 4172 01bd
00000060: d85b e8ba 7773 bd3c b954 c0be 7b98 bcbb
00000070: 649d aabb d2b7 8fbd 4caa a5bd 63cc 86be
00000080: 30b0 f43c 800e e4bb 96e8 aa3d 11b2 9b3a
00000090: 3a0f a3ba 69a1 75bc 5f71 e5bd a779 473d
000000a0: 6f7d d7bc 4e08 42ba ac35 6d3c cf3b 2c3d
000000b0: 69f8 e5bb a819 8b3c 7c9c 28bd 4e78 e13c
000000c0: 2d05 e1bc 90df bcbd b4e5 6b3c e6c4 133b
000000d0: a352 9c3c d6b1 2abc 64cb 3f3d 75a4 a5bc
000000e0: 3fa6 5ebc 0000 0dbe 5d52 a6bd d2b2 d13b
000000f0: 26ce 0f3d 8a40 a73e b829 fd3b 432c c6bd
00000100: adaa 6fbd af3f b1bc ea23 55bd c015 5fbb
00000110: 73d8 943b 3017 b5bc 7cfb 233c cacf 203e
00000120: b6e4 1c3d 0608 39be be96 593d 2e17 c23d
00000130: 32dd ba3d cabe e2bc f685 a73d 9f43 19be
00000140: d076 3e3d 32d9 7abd eda2 c03d 4027 8e3d
00000150: 3375 b8bc 0ea5 9abd 762f 41be 3c40 5b3d
00000160: a237 0a3d b946 093e 406f 5ebc e1ba fbba
00000170: 09ae 5d3c 96ea b23d 2006 053d 3cee a83c
00000180: 4587 963d 8bde 6d3d 0d1d 10bd 0482 3f3e
00000190: 84ea 9c3c 0d3f bbbd 9a15 83bc fae5 883d
000001a0: d0a0 743d 2305 c53d 644a a2bd 6e38 d3bb
000001b0: f19d 8eba 9599 973c a61d c1bd fae3 073c
000001c0: 0ebd 7abd d0bb 353e 4ec7 163e e43b 823e
000001d0: 12c8 b9bc 7d06 65bd 7ba7 1bbd 7c95 17bd
000001e0: 99a6 bdbd df02 5dbc caa1 0c3d 527a 593d
000001f0: d9e4 ab3d 9fbc 883c 41b0 bebd 6cb4 a0bd
00000200: 2513 dfbc 9e4b 203e 9c9e 403d c356 0ebd
00000210: 98a6 32bd 8e26 a93c b688 f93c eade 893d
00000220: 9bd2 0c3d d227 293d 0340 53bd ac2d 8dbc
00000230: 051a 85be 3ebb 95bd d1b8 2fbe d687 6a3d
00000240: bfd4 01be 45e3 3e3d 7e0b 11bd 5bec 423d
00000250: 6019 21be e9ff bb3d c31c b03c 0c49 563d
00000260: 4be2 c73c 4193 d8bb 6dd2 76bd 7aa4 923c
00000270: a94d d0bc c45d a03d 5e56 863d bcf7 053b
00000280: 9959 ba3c b424 06bb a34d b73b a620 743d
00000290: 487f 0a3e fbf1 24bd f920 313d e4e1 21bd
000002a0: 07ee aebe 16c5 8dbe cc1a 24bd 2b15 e7bc
000002b0: 71ad 7e3d db56 933b 1e30 0b3d 0e98 d4be
000002c0: 1132 61bd f670 44be c36c 853c 22b2 233d
000002d0: a345 f43b 0d40 96bd 9748 463e 0808 1ebb
000002e0: fe1e 33bd 4e75 a6bd b264 8fbb 74e9 e0bd
000002f0: 2f8a 9c3c a1f5 883d d9ff 1b3d d457 92be
00000300: 9e46 7abc 5602 7c3e b403 1d3d 71dd 163e
00000310: b86e 1dbd 6aca a6bb 2a11 043d 2722 293c
00000320: 441e f2bb 5695 febb 29e6 90bd dbaf 83bd
00000330: afc6 c53c 0e7b be3d e692 67bc e2b5 893d
00000340: 84cf 28be f76e 0b3d 8284 7b3d 0ce0 d73c
00000350: a1ff 113d 80c3 e4bc 3619 b43b e0e4 00bf
00000360: dc66 48be 5c05 1dbd dea3 283d 7fe1 dcbc
00000370: 114b 713b 2232 9d3d e1a3 a7bd 72ab 493c
00000380: 552c b33c db47 2abc 835e 3a3c 1dc0 d13c
00000390: 7f57 56be f455 12be 9b56 923c 1caa 27bd
000003a0: 1c63 19be 1c20 cd3b a5fe b43c ce4e 22bd
000003b0: 03b2 8b3c 169b 2a3d e54e 8738 9612 9abc
000003c0: 792c 743e 288a b03c 77cb e63c fade e7bb
000003d0: 7070 debd f73a a4bc 8e79 473c 5849 1abe
000003e0: 2cfb fbbb ab79 d53c 0a64 493d bea2 4cbc
000003f0: d714 643c a543 4fbd 8153 9c3d 15a8 44bc

model.3.bias f4 [201]
-0.010988416 -0.01235297 0.027720114 -0.056514975 -0.040902704 -0.011036868 -0.055844102 -0.115463026
-0.07439129 -0.09185576 -0.06679781 -0.12867361 -0.11905525 0.018325454 -0.06268853 -0.0030907057
-0.0606354 -0.06738717 0.052508604 -0.12357934 -0.037230175 -0.036158744 -0.018727042 -0.039819356
-0.027847387 -0.02251639 0.06018183 -0.033701662 0.062277492 0.05624363 -0.04284802 -0.084159605
0.046997614 -0.08929653 0.077226266 0.03765781 0.013639052 -0.03507219 0.0012062694 0.011200461
0.03384071 -0.08111709 -0.10723782 0.05961849 -0.06641261 0.038289692 0.08869411 -0.015329395
-0.005932549 0.061620444 0.055882107 0.05768563 -0.077551045 0.050152995 0.011657157 -0.024416462
-0.027651276 0.05410442 -0.0920492 -0.015277234 0.029047346 -0.11634461 -0.030818809 -0.022033088
-0.111421175 0.087103434 -0.070872635 -0.046828575 -0.067280255 -0.09924418 0.005228122 -0.023874825
0.045417465 -0.051440675 -0.041820433 -0.031783707 0.07200553 -0.010617016 -0.002498782 -0.03296695
-0.015384616 0.03469253 -0.012516537 -0.12366615 -0.07944945 -0.0054317145 -0.00424436 -0.07959021
-0.048083197 -0.060500223 -0.024275688 -0.0025621995 -0.07101242 -0.08024908 0.030728241 0.0008862477
-0.007075964 -0.14832766 -0.10148651 0.06807349 0.08906437 -0.01900545 0.026605045 -0.047950316
-0.08515112 0.053631358 -0.10281523 -0.06829204 0.06805067 -0.008640818 -0.07672597 0.050799135
-0.02857099 0.006068266 0.0017842137 0.15092497 -0.009903144 0.06476077 0.019831913 -0.13139834
0.071325876 0.022653509 -0.00815336 0.08428457 0.04436829 -0.06571064 -0.0037247865 -0.09648348
-0.020600256 0.062309597 0.035243966 0.0019113321 -0.03275025 -0.06006805 0.022590708 -0.015831903
0.0243573 -0.06779384 -0.022033894 -0.04353275 -0.075128466 -0.0049160253 -0.07013766 -0.074994385
-0.07353945 -0.059130106 -0.069009386 0.029624667 0.11364834 -0.110613585 -0.008871156 -0.04003869
-0.021041691 -0.007185183 0.044079006 -0.049906872 -0.07719434 -0.023328256 0.03769094 -0.019801768
-0.07765098 0.004590415 -0.1065218 0.019791132 -0.041458897 0.031546693 0.018355003 -0.04032069
-0.15259203 0.05366289 0.055946235 0.03859774 -0.019301482 0.050769825 0.034016814 -0.08820844
0.043098845 0.008461342 0.017238082 -0.105775595 0.08041973 -0.06515552 0.07578528 -0.08733521
0.008795153 -0.022056263 -0.03687136 -0.038261157 -0.057586495 -0.012254947 0.1403458 -0.090728186
0.011968635 0.064895906 -0.086535715 -0.0077220653 -0.073597156 -0.07541625 -0.020714475 -0.0807339
-0.059653714
00000000: c208 34bc 1d64 4abc 4b15 e33c 3f7c 67bd
00000010: 9889 27bd fbd3 34bc c9bc 64bd e177 ecbd
00000020: 765a 98bd df1e bcbd 4acd 88bd 04c3 03be
00000030: 3dd3 f3bd 431f 963c d862 80bd 708d 4abb
00000040: d35c 78bd 4902 8abd 4313 573d 2a17 fdbd
00000050: ab7e 18bd 311b 14bd 7469 99bc 9f19 23bd
00000060: 3420 e4bc 4b74 b8bc 3981 763d c10a 0abd
00000070: af16 7f3d b85f 663d 6881 2fbd df5b acbd
00000080: 9280 403d 19e1 b6bd ce28 9e3d 133f 1a3d
00000090: 5576 5f3c dba7 0fbd af1b 9e3a 2382 373c
000000a0: 8e9c 0a3d b820 a6bd 819f dbbd 8532 743d
000000b0: 5603 88bd a7d5 1c3d 42a5 b53d 2528 7bbc
000000c0: d465 c2bb b865 7c3d a3e4 643d c447 6c3d
000000d0: 15d3 9ebd 3a6d 4d3d a9fd 3e3c 0805 c8bc
000000e0: ee84 e2bc 999c 5d3d 4a84 bcbd 5d4d 7abc
000000f0: b3f4 ed3c 1546 eebd ba77 fcbc bc7e b4bc
00000100: c930 e4bd 4963 b23d ac25 91bd 52cf 3fbd
00000110: 3bca 89bd 8840 cbbd ab50 ab3b 2395 c3bc
00000120: aa07 3a3d 75b3 52bd e74b 2bbd a22f 02bd
00000130: a377 933d fef2 2dbc 9bc2 23bb 5a08 07bd
00000140: c20f 7cbc c119 0e3d 2912 4dbc ae44 fdbd
00000150: 65b6 a2bd 86fc b1bb 4614 8bbb 3100 a3bd
00000160: e3f2 44bd 15cf 77bd cfdd c6bc 93ea 27bb
00000170: f66e 91bd a159 a4bd cbb9 fb3c 1453 683a
00000180: 7ddd e7bb 35e3 17be 29d8 cfbd 1d6a 8b3d
00000190: 6167 b63d 51b1 9bbc d3f2 d93c 8d67 44bd
000001a0: b663 aebd 8eac 5b3d cb90 d2bd b2dc 8bbd
000001b0: 265e 8b3d 3892 0dbc 8122 9dbd c112 503d
000001c0: b50d eabc 4ed8 c63b 47dc e93a 138c 1a3e
000001d0: cc40 22bc 4ba1 843d 8976 a23c 498d 06be
000001e0: 4d13 923d da93 b93c ac95 05bc 639d ac3d
000001f0: 86bb 353d 4d93 86bd 8c1b 74bb 2199 c5bd
00000200: dec1 a8bc 5938 7f3d fa5b 103d aa85 fa3a
00000210: 2025 06bd ea09 76bd 2610 b93c e8b1 81bc
00000220: f688 c73c 7fd7 8abd 6d80 b4bc 664f 32bd
00000230: f4dc 99bd 9c16 a1bb 55a4 8fbd a896 99bd
00000240: da9b 96bd 6932 72bd cb54 8dbd 6eaf f23c
00000250: 76c0 e83d 6089 e2bd 5358 11bc 9cff 23bd
00000260: a05f acbc af71 ebbb 308c 343d 266b 4cbd
00000270: 1118 9ebd e61a bfbc d161 1a3d 5137 a2bc
00000280: 7a07 9fbd 316b 963b 1a28 dabd 0321 a23c
00000290: ced0 29bd 1b37 013d 3b5d 963c 4f27 25bd
000002a0: 1641 1cbe 9ecd 5b3d e127 653d aa18 1e3d
000002b0: 241e 9ebc 05f4 4f3d 3755 0b3d a0a6 b4bd
000002c0: 6a88 303d 71a1 0a3c e136 8d3c e0a0 d8bd
000002d0: 19b3 a43d 4270 85bd 5035 9b3d cddc b2bd
000002e0: 8c19 103c 56af b4bc 6c06 17bd bbb7 1cbd
000002f0: d1df 6bbd f9c8 48bc cfb6 0f3e b3cf b9bd
00000300: 1818 443c 25e8 843d a339 b1bd 6109 fdbb
00000310: 1bba 96bd d673 9abd 67b1 a9bc d157 a5bd
00000320: 7457 74bd

model.6.weight f4 [2, 201]
0.050527185 0.17767039 -0.039846133 0.0026687281 0.020843312 -0.029650506 0.053569417 -0.019343387
-0.0018074041 0.17775843 0.12547491 0.16629246 0.12180342 -0.099255614 0.08297846 0.025229763
-0.016527066 -0.03833422 -0.039839182 0.121427335 0.045102026 -0.015211783 0.09820408 0.07591096
0.060509413 -0.033758778 0.031665567 -0.084092334 -0.03468801 -0.03471807 0.06811475 -0.0034629565
0.014823278 0.041425575 0.05243498 0.05119205 -0.060326338 0.11436402 0.010990449 -0.037183214
0.042252902 0.046498097 0.11386249 -0.00074644474 0.054242224 -0.039167464 0.10206148 -0.014485475
-0.0026665065 -0.031106677 -0.051407054 -0.081221424 0.11474353 -0.012794847 0.10753378 0.016156133
-0.12835562 -0.12261214 -0.05151371 -0.01032298 0.025671456 0.12376996 0.08903208 0.055946704
0.06162913 0.017786711 0.04457179 -0.030870786 0.09134761 0.101814225 -0.032188907 0.034593966
0.013489947 0.015114343 0.10835377 -0.010553248 0.15018418 -0.06246594 -0.01502558 0.011191349
0.033333883 -0.039337836 0.0084550865 0.05749512 0.032193735 -0.07494451 0.1899184 -0.015634988
-0.054100905 0.037737057 -0.020787468 -0.020889252 0.023281656 0.12887596 -0.12574291 -0.034540873
0.097801246 0.13579698 0.065934874 -0.07485584 0.0652785 -0.041874837 -0.08429353 0.23476267
0.027983073 0.16199306 -0.017249355 0.11376313 -0.11819034 -0.065421954 0.05830366 -0.06700778
0.106831595 0.018927464 0.10222206 -0.056968894 -0.0061984253 0.11105091 -0.0139325885 0.05524576
-0.06910823 -0.0069247507 0.22086583 -0.0963171 -0.047690388 0.079412624 0.08735494 0.073060185
0.07610173 -0.13613714 -0.05794542 -0.03048672 -0.05709034 -0.0016005673 -0.10808995 -0.010535208
0.09673894 0.03675327 -0.042918336 -0.049174927 -0.0020977436 0.12526962 0.055561695 0.051791985
0.02465998 0.03158752 0.118499786 0.18642963 0.020499406 0.05094877 0.13806517 0.028232908
-0.060474925 -0.010832819 0.02415818 -0.05242118 0.04835409 0.06494534 0.00076774013 -0.071251296
0.114837565 0.0030076527 0.034538522 0.12164813 0.042203642 0.008278419 -0.061294515 0.008177702
0.13264851 -0.062708616 0.042885274 -0.011107105 -0.058073316 -0.04982013 -0.05393356 0.12285357
0.0042535057 0.029299682 0.057476483 -0.030330835 0.0828431 0.054820333 0.11815311 -0.020291572
0.122831464 -0.02981538 0.054393448 0.15994655 -0.028614266 -0.01019449 -0.04245102 -0.005528814
0.011495805 -0.031195639 0.095789626 0.031097898 -0.053110223 0.09993541 -0.043104388 0.13323428
-0.03369096 -0.077120945 -0.16070221 0.008165524 0.038031388 0.083567776 0.027198505 -0.040016968
0.044450685 0.01040815 -0.24354917 -0.063095726 -0.17021435 -0.1299645 0.0673732 -0.06137582
-0.11084742 0.01068657 0.017575527 -0.03801223 -0.09740469 -0.07787507 -0.0062687714 -0.14290492
-0.10433122 -0.071934566 0.049845304 0.034040913 -0.048406664 0.0152412215 0.019498305 -0.059828848
-0.066903576 0.018546015 -0.11924139 -0.07020694 -0.04173453 -0.044278413 -0.030275963 0.023176217
0.06957122 0.051599104 -0.12238897 -0.09080249 0.066568464 -0.033536028 -0.011769094 -0.094011016
-0.0124269985 0.058264166 0.014226644 -0.048066963 0.078072265 -0.0066233906 0.021707311 -0.08280937
00000000: 98f5 4e3d 3aef 353e b335 23bd d4e5 2e3b
00000010: 98bf aa3c 9ee5 f2bc 9b6b 5b3d 0676 9ebc
00000020: 6be6 ecba 4e06 363e 7f7c 003e 9248 2a3e
00000030: 1274 f93d 8746 cbbd 9cf0 a93d a6ae ce3c
00000040: c563 87bc 5804 1dbd 692e 23bd e5ae f83d
00000050: e7bc 383d d83a 79bc 381f c93d 3577 9b3d
00000060: b8d8 773d a546 0abd c1b3 013d 9a38 acbd
00000070: 0415 0ebd 8934 0ebd bf7f 8b3d c5f2 62bb
00000080: 56dd 723c ddad 293d 10c6 563d c1ae 513d
00000090: c018 77bd af37 ea3d 4911 343c 6d4d 18bd
000000a0: 6111 2d3d ca74 3e3d bd30 e93d 0fad 43ba
000000b0: 182d 5e3d 106e 20bd 9c05 d13d 7c54 6dbc
000000c0: 8ec0 2ebb 6ed3 febc 3490 52bd 6b57 a6bd
000000d0: a8fe ea3d 7aa1 51bc ac3a dc3d de59 843c
000000e0: a86f 03be 131c fbbd 0a00 53bd b721 29bc
000000f0: f24c d23c 1b7b fd3d 7356 b63d 5f28 653d
00000100: d46e 7c3d 70b5 913c e990 363d bbe4 fcbc
00000110: 7514 bb3d fa83 d03d 84d8 03bd 67b2 0d3d
00000120: f004 5d3c 26a2 773c 95e8 dd3d 88e7 2cbc
00000130: e2c9 193e 49dc 7fbd da2d 76bc eb5b 373c
00000140: 1c89 083d b620 21bd 3487 0a3c 0180 6b3d
00000150: 94dd 033d 827c 99bd f879 423e f214 80bc
00000160: e998 5dbd 2c92 1a3d 7b4a aabc f01f abbc
00000170: 2cb9 be3c 0ff8 033e c0c2 00be bb7a 0dbd
00000180: 054c c83d 5d0e 0b3e dd08 873d 054e 99bd
00000190: bcb0 853d f384 2bbd 16a2 acbd a065 703e
000001a0: c23c e53c 82e1 253e 854e 8dbc a5fc e83d
000001b0: c70d f2bd f2fb 85bd d2cf 6e3d 603b 89bd
000001c0: 86ca da3d c50d 9b3c cd59 d13d 3758 69bd
000001d0: 291c cbbb a96e e33d 8345 64bc 6149 623d
000001e0: 9e88 8dbd 05e9 e2bb a72a 623e e641 c5bd
000001f0: ff56 43bd 16a3 a23d 26e7 b23d 94a0 953d
00000200: 39db 9b3d 8967 0bbe 2d58 6dbd 49bf f9bc
00000210: 8fd7 69bd 20ca d1ba 445e ddbd dd9b 2cbc
00000220: 111f c63d 998a 163d 23cb 2fbd a66b 49bd
00000230: 4c7a 09bb ae46 003e a994 633d d523 543d
00000240: ba03 ca3c ea61 013d 04b0 f23d 69e7 3e3e
00000250: 5fee a73c a8af 503d f560 0d3e b348 e73c
00000260: 8eb4 77bd 237c 31bc 60e7 c53c 97b7 56bd
00000270: f00e 463d 1002 853d 2b42 493a 33ec 91bd
00000280: f52f eb3d 0a1c 453b 4478 0d3d a822 f93d
00000290: badd 2c3d 35a2 073c f50f 7bbd c5fb 053c
000002a0: 03d5 073e 606d 80bd 78a8 2f3d 93fa 35bc
000002b0: 49de 6dbd 3110 4cbd 70e9 5cbd a79a fb3d
000002c0: fe60 8b3b e305 f03c 766c 6b3d 5f78 f8bc
000002d0: a5a9 a93d 498b 603d 42fa f13d 833a a6bc
000002e0: 108f fb3d 623f f4bc aacb 5e3d 07c9 233e
000002f0: 7768 eabc ca06 27bc 1fe1 2dbd 0e2b b5bb
00000300: e758 3c3c ff8d ffbc 5a2d c43d 05c1 fe3c
00000310: 1b8a 59bd f0aa cc3d 3a8e 30bd 916e 083e
00000320: 88ff 09bd 96f1 9dbd 1f8f 24be b1c8 053c
00000330: cdc6 1b3d 9525 ab3d 66cf de3c d5e8 23bd
00000340: ec11 363d f286 2a3c f464 79be 5538 81bd
00000350: ac4c 2ebe 6a15 05be f6fa 893d 3665 7bbd
00000360: f903 e3bd b916 2f3c 8dfa 8f3c b6b2 1bbd
00000370: 1c7c c7bd f77c 9fbd 446a cdbb ab55 12be
00000380: 9bab d5bd 6e52 93bd 972a 4c3d 7c6e 0b3d
00000390: 1146 46bd 51b6 793c e9ba 9f3c 180f 75bd
000003a0: be04 89bd d0ed 973c d434 f4bd a8c8 8fbd
000003b0: d4f1 2abd 485d 35bd 4c05 f8bc 0ddc bd3c
000003c0: 5b7b 8e3d 9559 533d 11a7 fabd a8f6 b9bd
000003d0: 0c55 883d 135d 09bd 28d3 40bc d988 c0bd
000003e0: 9c9a 4bbc 68a6 6e3d df16 693c dde1 44bd
000003f0: 5ae4 9f3d 0709 d9bb 88d3 b13c f597 a9bd

model.6.bias f4 [2]
-0.21071999 0.20413914
00000000: fbc6 57be da09 513e
